JLRobot/model-SimpleLogistic-trained.pt (torch, 32951 bytes, 4 tensors)

layer1|weight f4 [60, 120]
-0.017590405 0.033419043 -0.13690826 -0.13255526 0.07312065 0.014700904 0.087425016 0.013761778
0.09103276 0.11606197 -0.037000053 0.025813878 0.1188328 0.027927965 0.015765356 -0.017161734
-0.029163586 0.012469701 -0.022381883 0.055839844 -0.019708758 -0.035699084 0.081574604 0.07357963
0.0032125646 0.092855155 -0.040448 -0.02062079 -0.13608994 -0.013028986 0.023065083 0.038940426
-0.15166679 0.060602114 -0.04372859 0.027341489 0.03867747 0.0045245113 -0.009805633 0.074410126
-0.0018820819 0.007815615 -0.08817807 0.10302541 -0.09856402 0.16720578 0.034373526 0.017561683
0.033963405 -0.023343185 0.061111525 0.011805921 -0.02758142 -0.06188444 -0.09644949 -0.1189074
-0.04353636 0.027118575 0.08192798 -0.024510507 -0.068580434 -0.070425585 -0.047935504 -0.08514528
0.031472925 0.00405136 0.080146566 0.063806616 -0.03353802 0.056663748 0.02969473 0.01787268
0.06490362 0.0727619 -0.006391472 0.039259538 0.061781876 0.037478916 -0.032765947 0.002735563
0.0076235305 -0.07699952 0.008400122 -0.04808432 0.04079171 0.02739916 -0.07797757 -0.016357748
-0.009387862 0.028826946 -0.082877934 0.022519404 0.031102832 0.07020262 -0.08743631 -0.08164875
-0.08040848 0.08638729 0.068490334 0.016564108 0.07216674 0.062211625 -0.0659976 -0.08324666
0.010243589 -0.03944358 0.06068602 0.00509041 -0.08921043 -0.012314267 -0.08346067 0.09105766
0.052962948 0.029843643 0.009472232 -0.047710285 -0.02530058 0.03439486 0.041951682 -0.04601721
0.08518493 0.05887584 0.110251985 0.02872425 0.13369635 -0.02428845 0.06136058 0.004517819
-0.08759203 -0.09870878 0.102263406 0.006250214 -0.03909356 -0.040337894 0.035303533 -0.060080852
0.083038144 0.037462745 -0.02241234 0.017220462 0.021223411 0.011859663 0.042120345 0.03972232
0.02396743 -0.029539036 -0.047858328 0.001517179 -0.10345529 -0.010918589 0.020773869 -0.12621152
-0.0779604 -0.018563729 0.07624921 0.043466724 -0.08934687 -0.08629907 -0.04019693 0.050027125
-0.099362545 -0.030022671 -0.13320304 0.06902176 -0.04039325 0.009808138 0.09202531 0.043923855
-0.0018966624 -0.07979232 0.057112098 -0.0749784 0.012343764 0.1097239 0.0816249 -0.13072518
-0.08677063 0.15295307 -0.027215922 0.11637365 -0.034616575 0.0044245347 -0.07218652 0.02641401
0.03766128 0.009156407 0.03433751 0.03124971 -0.005622248 -0.046245195 0.029376436 0.06537461
-0.082419895 -0.055527236 0.04830856 -0.043102045 0.024886237 -0.03346252 0.07920654 -0.012151109
0.010505514 -0.07724158 0.04551927 -0.056692727 0.010921641 0.08719559 -0.045109738 -0.04122922
7.443472e-06 0.05106368 -0.08779785 -0.041990098 0.07935026 0.025355296 -0.084552765 0.0018378956
0.08706787 0.018155761 -0.06211721 0.08475008 0.0036226858 -0.08534324 -0.026138537 0.03712839
-0.020618157 -0.016089784 0.0015827499 0.020966748 0.057154167 0.010840938 -0.07905327 0.054326802
-0.05547906 -0.03679908 -0.04163691 0.003738571 -0.051366627 -0.082919724 0.012647014 -0.07884731
0.10297603 0.011316632 0.059867464 -0.0336828 0.100044444 0.12214838 0.11125706 -0.030582573
0.06395819 -0.050829485 0.050973017 0.10462766 0.10290018 0.12294 0.0652466 0.10998567
00000000: c119 90bc 68e2 083d ae31 0cbe 91bc 07be
00000010: 48c0 953d 0fdc 703c e30b b33d 1579 613c
00000020: 626f ba3d e6b1 ed3d 5e8d 17bd a077 d33c
00000030: 9c5e f33d 30c9 e43c 5926 813c c496 8cbc
00000040: 79e8 eebc b74d 4c3c 365a b7bc 52b8 643d
00000050: 4374 a1bc 3439 12bd 9610 a73d ebb0 963d
00000060: e489 523b d82a be3d cdac 25bd eeec a8bc
00000070: 295b 0bbe 8777 55bc fcf2 bc3c ff7f 1f3d
00000080: 8a4e 1bbe ec39 783d c01c 33bd 42fb df3c
00000090: 446c 1e3d 5a42 943b cea7 20bc 5664 983d
000000a0: 30b0 f6ba 110d 003c b496 b4bd fcfe d23d
000000b0: efdb c9bd fe37 2b3e 41cb 0c3d 85dd 8f3c
000000c0: 361d 0b3d 353a bfbc 1450 7a3d 9f6d 413c
000000d0: 6ef2 e1bc 8a7a 7dbd 4f87 c5bd b985 f3bd
000000e0: 2f53 32bd c627 de3c dbc9 a73d 42ca c8bc
000000f0: e673 8cbd 4a3b 90bd 0558 44bd a660 aebd
00000100: c1e9 003d 45c1 843b e223 a43d 0bad 823d
00000110: 2a5f 09bd 3f18 683d 5d42 f33c ba69 923c
00000120: 30ec 843d 3104 953d 8e6f d1bb 9cce 203d
00000130: fe0e 7d3d 7e83 193d 9635 06bd 2247 333b
00000140: cfce f93b edb1 9dbd aaa0 093c 10f4 44bd
00000150: 3515 273d 3474 e03c b4b2 9fbd af00 86bc
00000160: 8ccf 19bc 7d26 ec3c e8bb a9bd 9d7a b83c
00000170: 5ecb fe3c 64c6 8f3d cf11 b3bd 7637 a7bd
00000180: 33ad a4bd d2eb b03d a944 8c3d 74b1 873c
00000190: 28cc 933d 9ed1 7e3d c029 87bd 3a7d aabd
000001a0: bad4 273c 978f 21bd e791 783d 74cd a63b
000001b0: f5b3 b6bd c8c1 49bc 6eed aabd 707c ba3d
000001c0: adef 583d a87a f43c 6c31 1b3c dc6b 43bd
000001d0: 2943 cfbc a0e1 0c3d 87d5 2b3d 8b7c 3cbd
000001e0: 7075 ae3d cb27 713d cbcb e13d 1e4f eb3c
000001f0: b2e7 083e 92f8 c6bc 3b55 7b3d 360a 943b
00000200: 7363 b3bd d427 cabd 7a6f d13d 98ce cc3b
00000210: 9220 20bd 5939 25bd 709a 103d 5717 76bd
00000220: e70f aa3d 8972 193d 159a b7bc ed11 8d3c
00000230: b8dc ad3c 084f 423c 6286 2c3d dfb3 223d
00000240: 5857 c43c d9fb f1bc 1807 44bd 14dc c63a
00000250: 5ee0 d3bd e2e3 32bc f62d aa3c 983d 01be
00000260: b4a9 9fbd f612 98bc 8c28 9c3d 2a0a 323d
00000270: 7efb b6bd 91bd b0bd 89a5 24bd 3ee9 4c3d
00000280: 977e cbbd 1bf2 f5bc 6166 08be 485b 8d3d
00000290: 6473 25bd 50b2 203c c477 bc3d 80e9 333d
000002a0: 6e99 f8ba 286a a3bd 60ee 693d 468e 99bd
000002b0: 803d 4a3c edb6 e03d f52a a73d d2dc 05be
000002c0: cdb4 b1bd bb9f 1c3e edf3 debc 4f55 ee3d
000002d0: 1cca 0dbd b0fb 903b 87d6 93bd 3262 d83c
000002e0: b742 1a3d c104 163c 7da5 0c3d 64ff ff3c
000002f0: d63a b8bb 9a6b 3dbd daa6 f03c 20e3 853d
00000300: c3cb a8bd 8770 63bd 32df 453d c58b 30bd
00000310: 39de cb3c ff0f 09bd 0a37 a23d 7215 47bc
00000320: 521f 2c3c d530 9ebd 6a72 3a3d a236 68bd
00000330: aff0 323c 9a93 b23d fdc4 38bd f8df 28bd
00000340: f0c2 f936 2628 513d 5ccf b3bd cffd 2bbd
00000350: 6482 a23d e9b5 cf3c 002a adbd 8be5 f03a
00000360: a450 b23d 64bb 943c 9e6e 7ebd 7391 ad3d
00000370: 956a 6d3b 70c8 aebd 7c20 d6bc f013 183d
00000380: 69e7 a8bc b9ce 83bc 4674 cf3a 75c2 ab3c
00000390: 7d1a 6a3d 319e 313c aee6 a1bd c885 5e3d
000003a0: 033e 63bd a2ba 16bd 778b 2abd d002 753b
000003b0: d065 52bd d1d1 a9bd 6c35 4f3c b37a a1bd
000003c0: 19e5 d23d 6569 393c 9637 753d faf6 09bd
000003d0: 1ae4 cc3d ee28 fa3d beda e33d 4e88 fabc
000003e0: 83fc 823d 9432 50bd 15c9 503d 0747 d63d
000003f0: 54bd d23d f7c7 fb3d 02a0 853d 2b40 e13d

layer2|bias f4 [5]
-0.111375 -0.062417 0.008532781 -0.0338727 0.019898271
00000000: 9318 e4bd f8a8 7fbd 14cd 0b3c 1abe 0abd
00000010: b301 a33c

layer1|bias f4 [60]
-0.06347622 0.01001889 -0.12169159 -0.09187647 0.03462395 -0.086764924 -0.0891154 -0.0038739264
-0.011407242 -0.039981104 -0.082102664 -0.08256563 -0.11078083 0.024074752 0.088910535 0.096846126
0.017743025 0.012731984 -0.008387828 0.040171716 0.01016666 0.063908026 -0.076396726 0.06746436
-0.094556615 -0.093866214 0.06589639 -0.05684234 0.037612572 0.05997233 -0.008450024 0.06261273
-0.07872125 -0.06229945 -0.06278938 -0.09166854 -0.00637122 0.022676483 -0.07886187 -0.070992544
-0.010397769 -0.05943386 -0.08048943 -0.0042149895 -0.085744545 -0.067755304 0.04176654 -0.033460297
-0.058689725 0.06615428 -0.06973614 0.092673376 0.07535591 0.06009978 0.039033975 0.04694149
0.09639599 0.051560596 -0.076564714 -0.1111503
00000000: d2ff 81bd 4526 243c 7139 f9bd bb29 bcbd
00000010: d8d1 0d3d cfb1 b1bd 2382 b6bd b3e1 7dbb
00000020: 71e5 3abc 3ac3 23bd 7125 a8bd 2b18 a9bd
00000030: 0fe1 e2bd 6a38 c53c ba16 b63d 4357 c63d
00000040: d259 913c d099 503c 1a6d 09bc 198b 243d
00000050: 1092 263c 36e2 823d e375 9cbd c12a 8a3d
00000060: e6a6 c1bd ee3c c0bd b0f4 863d 83d3 68bd
00000070: a40f 1a3d 8ca5 753d f871 0abc 1a3b 803d
00000080: 9b38 a1bd b52d 7fbd b897 80bd b7bc bbbd
00000090: abc5 d0bb 08c4 b93c 5582 a1bd 8a64 91bd
000000a0: 675b 2abc eb70 73bd a4d7 a4bd e51d 8abb
000000b0: d69a afbd 4bc3 8abd 6413 2b3d aa0d 09bd
000000c0: a364 70bd e57b 873d d2d1 8ebd 8acb bd3d
000000d0: 3354 9a3d 302b 763d 17e2 1f3d b845 403d
000000e0: 436b c53d 3431 533d f6cd 9cbd c5a2 e3bd

layer2|weight f4 [5, 60]
-0.000130509 0.054907 -0.07378524 -0.06222718 0.056070853 0.22274426 0.17672499 0.42734236
0.120873146 0.14077787 0.06294235 0.027494421 0.03548572 -0.09245835 0.16828133 -0.15313332
-0.1448001 -0.0745383 0.00094843766 0.05375292 -0.03051924 0.10552304 -0.07270252 -0.06639862
-0.00075829355 0.09547217 0.102712 -0.03437099 0.14404672 -0.38179386 0.13685633 -0.047796275
-0.054023515 0.12146323 0.14714536 0.04183234 -0.40427998 -0.1311283 -0.12232882 -0.05963098
-0.111108854 -0.08517827 0.13030985 -0.11618457 -0.0357339 -0.006553525 -0.13889109 -0.033518817
0.054722548 -0.23829938 -0.179548 -0.011301388 0.1762074 0.001205378 -0.014125869 -0.2469698
0.126106 0.020801494 -0.022340912 0.017820293 -0.022381937 0.13921142 -0.0036024798 0.007885491
-0.009161637 -0.03372267 0.024456747 -0.091323145 0.05944799 -0.11074432 0.043687414 0.099709645
0.06347174 0.014807227 -0.022384478 0.110440046 0.047393564 0.044503145 -0.032282338 -0.073412225
-0.028945042 0.11157666 -0.077209935 0.06810393 -0.13658759 0.089061625 0.08057801 -0.19389386
-0.06544806 0.20781375 -0.031141037 -0.12760445 -0.022503486 0.0063580167 -0.042085245 0.07787834
0.047278404 -0.15366364 0.021738809 0.101072595 -0.055020276 -0.034867477 0.05746588 -0.0150293205
0.016320456 -0.10734332 -0.18303797 -0.038703986 0.037293606 0.18011795 0.067868605 -0.086930834
0.019094551 -0.023210134 0.07520782 0.024287827 -0.13658558 -0.054211065 0.007147711 0.026215697
-0.013067411 -0.017015355 0.041529223 -0.05152005 0.01589969 0.08990702 -0.026384939 -0.060455374
-0.0021640097 0.086223975 -0.07842285 -0.024063667 -0.09517867 -0.053251304 -0.043347746 -0.1438291
-0.088785306 0.08073994 0.060455177 -0.13677157 0.057530284 0.101473115 0.0673028 0.0016891076
0.18157707 0.041637253 0.058559414 -0.15110147 -0.15606451 -0.0839326 0.056873307 -0.07770783
-0.07601498 0.048865337 0.033985462 0.097147144 0.12957057 -0.0057900217 0.040917177 0.09108422
0.018840484 -0.0022629646 -0.025874788 0.10737264 -0.10141496 0.097033136 -0.06737246 -0.016124763
0.07205848 -0.2023921 0.11654132 0.026798937 -0.06825659 0.022302521 -0.018028155 0.036950756
0.011683532 0.011138452 -0.064796165 -0.0059895115 0.106056936 -0.07789117 -0.060870394 -0.08714653
0.04679145 0.038288765 -0.117104255 -0.019029157 0.12107354 0.14747667 -0.01766853 0.06869549
-0.088443995 -0.18556885 0.0381574 -0.019637177 0.08028647 0.017495224 0.04108965 0.07474157
-0.0152469985 0.071804136 0.041135736 0.121691264 0.035753254 0.0014648569 -0.08012829 0.24201483
-0.050676595 0.18864314 -0.017419456 0.08557879 0.04854561 -0.122595705 -0.058289714 -0.021542892
-0.07281691 -0.14350031 0.049644273 0.007138551 -0.06535457 0.07477574 0.023131011 -0.033857785
0.19287674 -0.028989803 0.019686269 0.0823269 -0.034369655 -0.1315252 -0.14137413 0.18734896
-0.010681057 -0.070992775 0.04323128 -0.015999498 0.15732105 0.052392952 -0.0050671734 -0.025356345
0.0020945817 -0.13953657 0.0073852604 -0.088519044 0.1220957 -0.05573504 -0.11570722 0.13445462
0.11228557 0.10091621 0.051157717 -0.10273168 0.06015174 0.14657247 0.068915024 0.13320321
00000000: 3ed9 08b9 2ae6 603d b71c 97bd ede1 7ebd
00000010: 8daa 653d 1217 643e 65f7 343e 9ecc da3e
00000020: 578c f73d 1328 103e ebe7 803d fb3b e13c
00000030: 7959 113d ce5a bdbd f151 2c3e fbce 1cbe
00000040: 7a46 14be 89a7 98bd 93a0 783a 062c 5c3d
00000050: 7c03 fabc 771c d83d 0fe5 94bd 00fc 87bd
00000060: 38c8 46ba ea86 c33d ab5a d23d 98c8 0cbd
00000070: fc80 133e 7c7a c3be 1124 0c3e 07c6 43bd
00000080: c347 5dbd b7c1 f83d 46ad 163e 6358 2b3d
00000090: c9fd cebe 7f46 06be 8887 fabd 9d3f 74bd
000000a0: 0a8d e3bd f271 aebd f26f 053e 2df2 edbd
000000b0: b65d 12bd f4be d6bb 7739 0ebe 074b 09bd
000000c0: c024 603d c104 74be 6edb 37be 7529 39bc
000000d0: b66f 343e c6fd 9d3a 3070 67bc a7e5 7cbe
000000e0: ee21 013e e567 aa3c 4a04 b7bc ddfb 913c
000000f0: 535a b7bc 708d 0e3e 9517 6cbb 2532 013c
00000100: b11a 16bc c820 0abd 8459 c83c a107 bbbd
00000110: bc7f 733d ebcd e2bd 93f1 323d 9234 cc3d
00000120: 79fd 813d 039a 723c a75f b7bc 642e e23d
00000130: c11f 423d ee48 363d 7c3a 04bd 2659 96bd
00000140: 271e edbc 4e82 e43d 3e20 9ebd 137a 8b3d
00000150: 9edd 0bbe f165 b63d 1506 a53d 1d8c 46be
00000160: a209 86bd 21cd 543e 7d1b ffbc beaa 02be
00000170: 3b59 b8bc e956 d03b 9461 2cbd ae7e 9f3d
00000180: 00a7 413d 005a 1dbe 9615 b23c 26ff ce3d
00000190: f15c 61bd 33d1 0ebd 5861 6b3d 8a3d 76bc
000001a0: 7ab2 853c d1d6 dbbd 4e6e 3bbe 1288 1ebd
000001b0: 2ec1 183d d770 383e b2fe 8a3d cb08 b2bd
000001c0: 2d6c 9c3c 2e23 bebc 8f06 9a3d 44f7 c63c
000001d0: 17dd 0bbe 6c0c 5ebd 5837 ea3b 4dc2 d63c
000001e0: b218 56bc c963 8bbc 8c1a 2a3d b006 53bd
000001f0: 1140 823c 2c21 b83d 3a25 d8bc 0ea0 77bd
00000200: 0fd2 0dbb 3296 b03d 299c a0bd 2b21 c5bc
00000210: 09ed c2bd 0a1e 5abd 688d 31bd f047 13be
00000220: 12d5 b5bd fb5a a53d d99f 773d d90d 0cbe
00000230: e0a4 6b3d 23d1 cf3d 0dd6 893d 0c65 dd3a
00000240: 57ef 393e d38b 2a3d ffdb 6f3d 58ba 1abe
00000250: 60cf 1fbe dbe4 abbd fcf3 683d 4825 9fbd
00000260: bead 9bbd 0527 483d 5734 0b3d 15f5 c63d
00000270: 26ae 043e 39ba bdbb c598 273d 5d8a ba3d
00000280: 5c57 9a3c 3f4e 14bb 5df7 d3bc 30e6 db3d
00000290: a6b2 cfbd 4fb9 c63d 93fa 89bd 1418 84bc
000002a0: 6593 933d e03f 4fbe 37ad ee3d 7289 db3c
000002b0: 1cca 8bbd c7b3 b63c c8af 93bc ad59 173d
000002c0: 496c 3f3c 0e7e 363c dab3 84bd aa43 c4bb
000002d0: 6134 d93d 6885 9fbd 3c53 79bd e179 b2bd
000002e0: 64a8 3f3d aed4 1c3d 5bd4 efbd 09e3 9bbc
000002f0: 67f5 f73d 2004 173e 98bd 90bc 39b0 8c3d
00000300: 2022 b5bd c305 3ebe ef4a 1c3d 25de a0bc
00000310: 3c6d a43d 2552 8f3c 9f4d 283d 1c12 993d
00000320: 8cce 79bc 0c0e 933d f27d 283d 4539 f93d
00000330: 0172 123d 7100 c03a 4d1a a4bd bcd2 773e
00000340: 4392 4fbd ab2b 413e 3fb3 8ebc ef43 af3d
00000350: c3d7 463d 7513 fbbd 32c1 6ebd b87a b0bc
00000360: 0821 95bd bff1 12be cb57 4b3d 82ea e93b
00000370: 9ed8 85bd 0624 993d 3f7d bd3c 76ae 0abd
00000380: 7b81 453e 067c edbc 1945 a13c 019b a83d
00000390: 32c7 0cbd 8bae 06be 61c4 10be 68d8 3f3e
000003a0: 9aff 2ebc a964 91bd 4813 313d 6111 83bc
000003b0: c518 213e fe99 563d 880a a6bb 1cb8 cfbc
000003c0: 4045 093b ade2 0ebe 0e00 f23b 7949 b5bd
000003d0: 4f0d fa3d 6d4a 64bd e8f7 ecbd 79ae 093e
000003e0: faf5 e53d 28ad ce3d c18a 513d fd64 d2bd
000003f0: ac61 763d 1817 163e 5223 8d3d 6c66 083e
